…
                  [dear, god, site, horrible]\n","8  00025358d4737918  [fool, believe, numbers, correct, number, lies...\n","9  00026d1092fe71cc  [double, redirects, fixing, double, redirects,...\n","Model: \"model\"\n","_________________________________________________________________\n","Layer (type)                 Output Shape              Param #   \n","=================================================================\n","input_1 (InputLayer)         [(None, 200)]             0         \n","_________________________________________________________________\n","embedding (Embedding)        (None, 200, 128)          2816000   \n","_________________________________________________________________\n","lstm_layer (LSTM)            (None, 200, 60)           45360     \n","_________________________________________________________________\n","global_max_pooling1d (Global (None, 60)                0         \n","_________________________________________________________________\n","dropout (Dropout)            (None, 60)                0         \n","_________________________________________________________________\n","dense (Dense)                (None, 50)                3050      \n","_________________________________________________________________\n","dropout_1 (Dropout)          (None, 50)                0         \n","_________________________________________________________________\n","dense_1 (Dense)              (None, 6)                 306       \n","=================================================================\n","Total params: 2,864,716\n","Trainable params: 2,864,716\n","Non-trainable params: 0\n","_________________________________________________________________\n","None\n","Epoch 1/2\n","2244/2244 [==============================] - 453s 201ms/step - loss: 0.1389 - accuracy: 0.8030 - val_loss: 0.0527 - val_accuracy: 0.9940\
…
